IMG_CLASS/models/cifar10.tflite (tflite, 673600 bytes, 8 tensors)

arith.constant f4 [64]
0	0x3e11f145	0.14252193
1	0x3e7a4bd8	0.24442995
2	0xbd487919	-0.048943613
3	0x3e83cc75	0.25741926
4	0xbbf42a17	-0.0074513066
5	0xbd2b3cd1	-0.041806046
6	0x3d990d6a	0.07473262
7	0xbc526f50	-0.012843922
8	0xbd3f5fe4	-0.046722308
9	0x3ec4e069	0.3845246
10	0xbd730108	-0.059327155
11	0xbc0223d8	-0.007943116
12	0xbd349f13	-0.044097017
13	0xbcfb607f	-0.030685661
14	0xbd9edf61	-0.0775745
15	0xbde4935d	-0.1116092
16	0xbcdb6699	-0.02678232
17	0x3da5d0ce	0.08096467
18	0xbbbad709	-0.0057019037
19	0xbd0e4934	-0.03473778
20	0x3c5a3138	0.013317399
21	0xbe03c4c2	-0.12868026
22	0x3bb1428f	0.0054095457
23	0x3e593993	0.21213369
24	0xbd064b07	-0.032786395
25	0xbdcca2dc	-0.099920005
26	0xbd957ac9	-0.0729881
27	0x3e1f5564	0.15559918
28	0x3dd1364b	0.10215434
29	0x3e12a52a	0.14320818
30	0xbca37035	-0.019950965
31	0x3dda8052	0.106690064
32	0xbd005a87	-0.031336334
33	0xbd1dad68	-0.03849545
34	0xbe1dd3b3	-0.15412788
35	0xbc9d7805	-0.019222269
36	0xbd2cd3b3	-0.04219408
37	0xbd0c7069	-0.03428689
38	0x3b748261	0.0037309157
39	0xbe65cc13	-0.2244113
40	0x3daf74a2	0.08567168
41	0xbd3b92dd	-0.045794357
42	0x3c13b308	0.009014852
43	0x3d09820f	0.0335713
44	0x3e362d50	0.17790723
45	0xbb02c7db	-0.001995555
46	0x3c7633aa	0.015026966
47	0x3d815cd9	0.063165374
48	0x3c337d27	0.010955132
49	0xbd1172a4	-0.03550972
50	0x3b148dd6	0.0022667549
51	0x3dc47886	0.095933005
52	0x3ca103c6	0.01965512
53	0x3e3541f6	0.17700943
54	0xbd3b6c11	-0.045757357
55	0xbe1b1e09	-0.15148176
56	0x3e47713e	0.19476792
57	0x3d85cbd7	0.0653302
58	0x3e52a665	0.20571287
59	0xbd2abbd4	-0.041683033
60	0x3e992050	0.29907465
61	0xbc6c015d	-0.014404622
62	0xbcf3a4ed	-0.029741729
63	0xbdd92bc7	-0.10604053

arith.constant1 f4 [64, 3, 3, 32]
0	0x3d1ecd52	0.038770027
1	0xbce98f42	-0.028510693
2	0xbd6b6c7b	-0.057476502
3	0xbd86c31c	-0.06580183
4	0xbe4ce48c	-0.20009059
5	0xbd145c9b	-0.036221128
6	0xbd9365c7	-0.07197147
7	0x3d0508b7	0.032479014
8	0x3db1d440	0.086830616
9	0x3d863234	0.06552544
10	0x3c91aacc	0.017781638
11	0xbdab2789	-0.0835715
12	0xbe6f8437	-0.2339028
13	0xbc071e68	-0.0082469955
14	0xbdc2d397	-0.09513014
15	0x3ca5597c	0.020184271
16	0xbd694c81	-0.056957725
17	0x3d8d604f	0.06903135
18	0x3d98aee5	0.074552335
19	0xbe37a9dc	-0.1793589
20	0x3c1c2296	0.00952973
21	0x3bc2b07b	0.0059414483
22	0xbd90399f	-0.0704224
23	0x3d8c4f09	0.06851012
24	0xbe08d64b	-0.13362996
25	0x3c904397	0.017610354
26	0x3dd80796	0.10548322
27	0xbdb57cca	-0.08861692
28	0xbddc03aa	-0.10742886
29	0x3da5a72f	0.08088528
30	0x3d378f5e	0.04481446
31	0x3d950536	0.072763845
32	0xbcd22c4e	-0.025655892
33	0xbabc697c	-0.0014374699
34	0xbc9949f0	-0.018712014
35	0xbd087165	-0.033311266
36	0x3dc1e500	0.094675064
37	0x3cbcfc96	0.023069661
38	0xbdf65f9b	-0.12029954
39	0xbdffc199	-0.12488098
40	0x3cc7d954	0.024395622
41	0x3ccbaa3a	0.024861444
42	0x3e039ebc	0.12853521
43	0xbc8ef3f3	-0.017450308
44	0xbe52a722	-0.20571569
45	0xbd13e57c	-0.036107525
46	0x3c7ed44c	0.015553545
47	0xbb9ec5a4	-0.004845338
48	0x3bf2bb57	0.0074075866
49	0xbe030354	-0.12794238
50	0xbcfd584d	-0.030925894
51	0xbded089c	-0.11573908
52	0xbc9c23fa	-0.019060124
53	0xbc00a122	-0.007850917
54	0xbe44ff38	-0.19237983
55	0x3d7afb09	0.061274562
56	0x3d7ee695	0.06223162
57	0xbd26e98a	-0.040750064
58	0xbe6495aa	-0.22322717
59	0x3ccae9d4	0.024769701
60	0xbd84cfd2	-0.06484951
61	0xbdb9e8da	-0.09077616
62	0xbc9dbcba	-0.01925503
63	0xbdc695a5	-0.09696511
64	0x3cc96f50	0.02458921
65	0xbd40814d	-0.04699831
66	0xbda7bb94	-0.081900746
67	0x3e008adc	0.1255297
68	0xbdec95b4	-0.11551991
69	0x3e375d4f	0.17906688
70	0x3e0a1f2f	0.13488458
71	0x3d88b019	0.06674213
72	0x3daee359	0.08539457
73	0x3e139dbf	0.14415644
74	0xbdecbb53	-0.11559167
75	0xbd96e728	-0.07368308
76	0xbdbbde08	-0.091732085
77	0x3ae2d9f2	0.0017307384
78	0x3d441d2f	0.047879394
79	0xbd6a0c94	-0.0571409
80	0x3ceecca9	0.029150324
81	0xbd0bc16b	-0.034120005
82	0xbd2792bd	-0.040911425
83	0x3da98c3f	0.08278703
84	0xbdaabb0d	-0.08336458
85	0x3dab553b	0.08365866
86	0x3d3e9637	0.046529975
87	0xbcca215f	-0.024674116
88	0xbe19d5c7	-0.15022956
89	0x3cf5f5e2	0.030024473
90	0xbddbb7e3	-0.10728433
91	0xbcedea73	-0.029042458
92	0x3d80147d	0.06253908
93	0xbccfea3b	-0.025380244
94	0xbc5d114c	-0.013492893
95	0x3d069826	0.032859944
96	0xbcf5270e	-0.02992585
97	0xbe1378c6	-0.1440154
98	0xbd1ae45e	-0.037815444
99	0x3d9eef99	0.077605434
100	0x3e090ad6	0.1338304
101	0x3e5efdcd	0.21776505
102	0x3d7d3158	0.061814636
103	0xbde4a7b1	-0.11164797
104	0xbd98a78d	-0.07453833
105	0x3b11a5b1	0.0022224004
106	0x3e1cbbc0	0.15305996
107	0xbe19f2c8	-0.1503402
108	0xbee77682	-0.45207602
109	0x3cb6b53c	0.022303216
110	0xbe9cc141	-0.3061619
111	0xbdd449d2	-0.103656426
112	0x3d989af0	0.07451427
113	0xbe2d429c	-0.1691994
114	0xbd49fbe0	-0.049312472
115	0xbe67edb5	-0.22649272
116	0xbd094b61	-0.033519153
117	0xbdf1307e	-0.11776827
118	0xbd53ad9e	-0.051679246
119	0xbbb3f82a	-0.00549223
120	0x3d1fd309	0.03901962
121	0x3e67a8e6	0.22623023
122	0xbdd820b9	-0.10553116
123	0xbe37cbfe	-0.1794891
124	0xbc16cd51	-0.009204225
125	0xbe6ecfc4	-0.23321444
126	0xbe707ca6	-0.2348505
127	0x3d562eb9	0.052290652
128	0x3e08f936	0.13376316
129	0x3deb9338	0.11502689
130	0xbd39103e	-0.045181505
131	0x3cc62bcc	0.024190806
132	0xbe2dbc1e	-0.16966292
133	0x3e42f9c2	0.19040588
134	0x3d3d73aa	0.046252884
135	0x3e235fcc	0.15954512
136	0x3d2d2e5f	0.04228055
137	0x3d5ff19a	0.05467377
138	0xbe2137fa	-0.1574401
139	0xbe1c6549	-0.15273012
140	0xbefe54f0	-0.49674177
141	0x3d17d43e	0.037067644
142	0xbe62899e	-0.2212281
143	0xbd47910b	-0.048722308
144	0xbda00e35	-0.0781521
145	0x3e2a101f	0.16607712
146	0x3ca2adc8	0.019858256
147	0xbea3c5a2	-0.3198672
148	0x3c5e2687	0.01355899
149	0xbddefb6b	-0.10887798
150	0x3d241de1	0.040067557
151	0xbc8ed1b0	-0.017433971
152	0xbe143296	-0.14472422
153	0xbcc12ebf	-0.02358186
154	0x3debe247	0.11517768
155	0xbe331680	-0.17489052
156	0x3d689b0e	0.056788497
157	0x3dcd6733	0.10029449
158	0xbc0eb883	-0.008710983
159	0x3dbcf393	0.092261456
160	0x3b9fd681	0.004877866
161	0x3d9b4fa4	0.075835496
162	0x3d01bb19	0.03167257
163	0x3c7b154e	0.015324904
164	0x3dccff70	0.10009658
165	0x3d2c8d31	0.042126838
166	0xbe311517	-0.17293201
167	0xbd3ef61f	-0.046621438
168	0xbe47a2d4	-0.19495708
169	0xbc5951dc	-0.013264146
170	0xbc7bce51	-0.015369014
171	0xbd213475	-0.039356668
172	0xbe0daa86	-0.13834581
173	0x3c63ec12	0.013911264
174	0xbdef4a48	-0.1168409
175	0x3d628431	0.05530185
176	0x3d490417	0.049076166
177	0xbe19e7c9	-0.15029825
178	0xbc6c1ff5	-0.014411916
179	0xbdafcabf	-0.085835926
180	0xbcf72163	-0.030167287
181	0xbe090060	-0.1337905
182	0xbe78590e	-0.24252722
183	0x3dce8f0b	0.10085877
184	0x3dbf8bd4	0.09352842
185	0x3dad5498	0.084634006
186	0xbe8b2e8b	-0.27183947
187	0xbd9b982d	-0.075973846
188	0xb9a30d60	-0.00031099748
189	0xbb9ce53f	-0.0047880705
190	0xbd8bbd8a	-0.06823261
191	0x3d1a8021	0.03771985
192	0xbd8d1bdf	-0.068900816
193	0x3d32a4c5	0.043614168
194	0x3cf8aaba	0.030354846
195	0x3da8bd38	0.082392156
196	0x3dc4b5fb	0.096050225
197	0xbdd3d9b5	-0.10344259
198	0xbdb015f4	-0.08597937
199	0xbc1a852d	-0.009431166
200	0xbeb11f64	-0.34594262
201	0xbd841fab	-0.06451353
202	0x3da9c09b	0.0828869
203	0xbe8fee14	-0.28111327
204	0xbee54b44	-0.44783986
205	0x3bc82e61	0.0061090444
206	0xbed29263	-0.4112731
207	0xbcce2a9b	-0.0251668
208	0xbd3050c4	-0.043045774
209	0x3e06587f	0.13119696
210	0x3d1d4a83	0.038401138
211	0xbe47360f	-0.19454215
212	0xbca35820	-0.019939482
213	0xbe8e9187	-0.27845404
214	0xbe20986a	-0.15683141
215	0x3dcf82a5	0.1013234
216	0x3df01118	0.117220104
217	0xbc450c7a	-0.0120269
218	0x3d369586	0.04457619
219	0xbd38671e	-0.045020215
220	0xbd2c6e17	-0.042097177
221	0x3ddfdb23	0.10930469
222	0xbd98192f	-0.074266784
223	0x3dc32afa	0.095296815
224	0xbdfcd600	-0.12345505
225	0xbdb0164d	-0.085980035
226	0xbd0758ef	-0.033043798
227	0xbd7a0d4b	-0.061047833
228	0x3e0f8362	0.14014962
229	0x3e60cd2f	0.21953271
230	0xbd305b27	-0.04305568
231	0xbc4d1f9c	-0.012519743
232	0xbe6503c4	-0.22364718
233	0x3d5e76eb	0.054312628
234	0xbd7710c1	-0.060318712
235	0xbea3186b	-0.31854567
236	0xbf23db40	-0.64006424
237	0xbbd1e56d	-0.0064055235
238	0xbe3ddf93	-0.18542318
239	0xbd5bb089	-0.053635154
240	0xbdda2ccd	-0.10653076
241	0x3dc9f0c2	0.09860374
242	0x3e0bbdc3	0.13646607
243	0xbe5e7fe1	-0.2172847
244	0x3d292b8c	0.041301295
245	0xbe2e9731	-0.17049862
246	0xbc902f45	-0.017600665
247	0xbda97406	-0.08274083
248	0x3d5e4212	0.05426223
249	0x3e122551	0.14272048
250	0xbda3cc1f	-0.079979174
251	0xbe3d62d7	-0.18494736
252	0x3dabf02e	0.0839542
253	0xbcce6abf	-0.025197385
254	0xbe40bbe0	-0.18821669
255	0xbd7fbb5a	-0.06243453

arith.constant2 f4 [10, 64]
0	0xbce764be	-0.02824628
1	0xbdecfa3a	-0.115711644
2	0xbe75aa40	-0.23990726
3	0xbded3cdc	-0.11583874
4	0xbd130557	-0.035893764
5	0x3e931864	0.28729546
6	0x3ed987a5	0.424863
7	0xbe411728	-0.1885649
8	0x3d7b82a3	0.06140388
9	0xbe2cf06d	-0.1688859
10	0xbdcbda68	-0.09953767
11	0xbeb6f7e1	-0.35735992
12	0xbe105f61	-0.14098884
13	0xbd1ccf60	-0.038283706
14	0x3e790830	0.2431953
15	0x3d5cfe6a	0.053953566
16	0x3ea9d3fc	0.33169544
17	0xbddef6e8	-0.108869374
18	0xbd0ce479	-0.034397576
19	0xbf10367d	-0.5633314
20	0x3eb82a38	0.3596971
21	0xbd9c79d2	-0.07640423
22	0xbdb43851	-0.08799804
23	0x3b5644fd	0.0032694929
24	0x3ea994df	0.33121392
25	0x3eb39d30	0.35080862
26	0x3eabc98b	0.33552203
27	0xbe177b89	-0.14793219
28	0x3e1f7951	0.15573622
29	0x3e680fdd	0.22662301
30	0xbe06f543	-0.13179497
31	0x3ddc87d9	0.107680984
32	0xbc1a6b4b	-0.009424995
33	0xbe40212f	-0.18762659
34	0xbe0e2f8e	-0.13885328
35	0xbc4e3561	-0.012585969
36	0xbef2069b	-0.47270665
37	0x3e426345	0.18983181
38	0xbe6ed9e1	-0.23325302
39	0xbe21a9df	-0.15787457
40	0xbe3e47f6	-0.18582138
41	0x3e1fc5b2	0.15602759
42	0x3ebeaa36	0.37239236
43	0xbe0223bd	-0.12708946
44	0x3e3ac0b8	0.18237579
45	0x3db72ebc	0.08944461
46	0x3d98f1b0	0.07467973
47	0x3ef4a0e8	0.47779012
48	0xbe2119fd	-0.1573257
49	0x3e2aa83c	0.16665739
50	0xbe813627	-0.25236627
51	0xbe5513c6	-0.20808324
52	0xbe1927c7	-0.1495658
53	0x3ec1992f	0.37812182
54	0x3e0db4e4	0.13838536
55	0xbe8acadc	-0.27107894
56	0xbe88b0dc	-0.26697433
57	0x3e1f5852	0.15561035
58	0xbd9bb03e	-0.07601975
59	0xbe9d8991	-0.30769017
60	0x3dd7e75a	0.10542174
61	0xbda13077	-0.07870572
62	0xbf177d3f	-0.59175485
63	0x3e6a69f7	0.22891985
64	0x3db07d21	0.086176164
65	0x3eaefebd	0.34178725
66	0xbe806fb1	-0.25085214
67	0xbd3ef64a	-0.0466216
68	0xbdcd185a	-0.1001441
69	0x3ddc7efa	0.10766406
70	0x3e9fa1b8	0.3117807
71	0xbe05b379	-0.13056745
72	0x3e847a71	0.25874665
73	0x3df17e77	0.117916994
74	0xbe89ca17	-0.26911995
75	0x3eb9fa17	0.36323616
76	0xbe15b0a2	-0.14618161
77	0x3e4ff80d	0.20309468
78	0xbf1f034b	-0.621144
79	0x3e301002	0.17193606
80	0xbe95dad4	-0.29268515
81	0x3d59d33d	0.05317997
82	0x3e710781	0.23538019
83	0xbeb4e836	-0.35333413
84	0xbeb93f09	-0.36180905
85	0xbd261ff5	-0.04055782
86	0x3e7d45e2	0.2473369
87	0xbe5565ac	-0.20839566
88	0x3e5b6357	0.21424614
89	0xbebdb69b	-0.3705338
90	0x3edb4bfe	0.42831415
91	0xbd51210f	-0.051056918
92	0x3e34e196	0.17664179
93	0x3dcba500	0.099435806
94	0xbe08c56f	-0.13356565
95	0xbec1a65d	-0.37822238
96	0x3d8db3c1	0.06919051
97	0x3db14bc3	0.086570285
98	0x3e3c3ffd	0.18383785
99	0x3eb22812	0.34796196
100	0x3ea021ef	0.3127589
101	0x3e939049	0.28821018
102	0x3c74dc18	0.014945053
103	0xbe0984a7	-0.13429509
104	0xbeadc795	-0.33941332
105	0xbe550b5e	-0.20805117
106	0xbee5021e	-0.44728178
107	0x3e1551ad	0.14581938
108	0x3e7d77d1	0.24752738
109	0x3e125e8c	0.1429388
110	0xbe9652fd	-0.2936019
111	0xbe48a641	-0.19594671
112	0xbe158332	-0.14600828
113	0xbd6819d1	-0.056665245
114	0x3cb5d2c4	0.022195227
115	0xbf20b599	-0.62777096
116	0x3c8170c9	0.01580085
117	0xbe876833	-0.26446685
118	0x3e3460df	0.17615078
119	0x3dbcbd33	0.092157744
120	0x3d4c8b7f	0.04993772
121	0x3e404372	0.18775728
122	0xbe922e93	-0.28551158
123	0x3e22e299	0.15906753
124	0xbe488849	-0.19583239
125	0x3ec629a2	0.38703638
126	0xbc849859	-0.016185926
127	0x3e74f3ae	0.23921081
128	0xbe574d14	-0.21025497
129	0x3e7a67f5	0.24453719
130	0x3e592898	0.21206892
131	0xbe03590e	-0.1282694
132	0x3e5afd78	0.21385753
133	0x3e1da3ff	0.15394591
134	0xbe541cac	-0.20714062
135	0xbe16cf06	-0.1472741
136	0xbe828da7	-0.25498697
137	0x3e14fa48	0.145486
138	0x3e990d38	0.29892898
139	0x3c8508d5	0.016239563
140	0xbe312572	-0.1729944
141	0xbe4a15b3	-0.1973484
142	0xbe8091bb	-0.25111184
143	0xbe38cdcd	-0.18047257
144	0x3dabbe9f	0.083859675
145	0xbe81dd4f	-0.25364158
146	0x3d21c866	0.039497755
147	0xbebbe68c	-0.3669933
148	0x3e937743	0.28801927
149	0xbe40ce65	-0.18828733
150	0xbcfccca7	-0.030859305
151	0x3eb80ef8	0.3594892
152	0xbe7f09f0	-0.24906135
153	0x3e06de8f	0.13170837
154	0xbe61c09a	-0.22046128
155	0x3e1b3cdc	0.15159935
156	0x3e712289	0.2354833
157	0xbd9ec39c	-0.07752153
158	0xbde9be9f	-0.11413311
159	0xbe1af59c	-0.15132755
160	0xb8e093d5	-0.00010708688
161	0x3c861950	0.016369492
162	0xbd9debe5	-0.07711009
163	0x3d9aca7d	0.07558153
164	0xbec42994	-0.38312972
165	0xbe44dced	-0.19224901
166	0x3c957e34	0.018248655
167	0x3c639ba2	0.013892086
168	0xbe8c0584	-0.27347958
169	0x3e64f0aa	0.22357431
170	0x3e71d555	0.23616536
171	0x3e654cbd	0.22392555
172	0x3da0d3db	0.07852908
173	0xbb87151f	-0.004122391
174	0x3eb721d7	0.35768005
175	0xbe15e4b0	-0.14638019
176	0xbe963259	-0.29335287
177	0xbe59a61e	-0.21254775
178	0x3e5745ac	0.21022671
179	0x3d792105	0.060822506
180	0x3f0364f7	0.51325935
181	0x3e0d4026	0.13794002
182	0xbec19294	-0.37807143
183	0xbe6d98df	-0.23202847
184	0x3d816c7e	0.06319521
185	0xbc11d7b1	-0.0089015225
186	0x3e9a6dbd	0.3016185
187	0x3e2282f5	0.15870269
188	0xbda6d814	-0.081466824
189	0xbe894f6c	-0.26818407
190	0x3e84f557	0.2596843
191	0x3dd8ce99	0.105862804
192	0x3c3c4941	0.0114920745
193	0x3d24b2b6	0.040209495
194	0xbdbe13b8	-0.09281105
195	0xbd9f9e85	-0.07793907
196	0xbdc5b028	-0.0965274
197	0x3e188128	0.14893019
198	0x3dfb3934	0.1226677
199	0xbea1b309	-0.31581905
200	0x3d775740	0.060385942
201	0xbe8c5eee	-0.27416176
202	0x3e5a0fb9	0.2129506
203	0x3e1e737b	0.1547374
204	0xbd9f3743	-0.07774212
205	0x3e2089d1	0.15677573
206	0xbeb1a2c8	-0.34694505
207	0xbe10dd88	-0.14147007
208	0xbde5ec8a	-0.11226757
209	0x3e458689	0.19289602
210	0x3dd968a8	0.10615665
211	0xbe96a96e	-0.2942614
212	0xbec76b5a	-0.3894909
213	0xbdb76137	-0.08954089
214	0xbe77a912	-0.24185589
215	0xbebaff23	-0.3652278
216	0x3e44150c	0.19148654
217	0xbe654904	-0.22391135
218	0xbec524fb	-0.38504776
219	0xbd8c7606	-0.06858449
220	0xbdee978a	-0.116499975
221	0x3e1ad916	0.15121874
222	0xbdab2b22	-0.08357836
223	0xbe378eeb	-0.17925613
224	0xbe0580c8	-0.13037407
225	0x3e54fc0a	0.2079927
226	0x3e3a9188	0.18219578
227	0xba290199	-0.00064470764
228	0xbdaa720b	-0.08322533
229	0xbd3e4013	-0.046447825
230	0x3defeb61	0.11714817
231	0x3e748c91	0.23881747
232	0x3e7fcdc3	0.24980836
233	0x3c97e52a	0.018541891
234	0x3e0b5c9b	0.13609545
235	0x3e7938b4	0.24338037
236	0x3e52e158	0.20593774
237	0xbd290926	-0.04126849
238	0xbd508266	-0.050905608
239	0xbed17ecc	-0.4091705
240	0x3e4e3500	0.20137405
241	0x3e1b92e1	0.15192749
242	0xbe8f5bb0	-0.2799964
243	0x3e54282a	0.20718446
244	0xbeb3c695	-0.35112444
245	0x3e7dd48b	0.2478811
246	0x3dbb8143	0.09155514
247	0x3ed94568	0.42435765
248	0xbe95edf6	-0.29283112
249	0x3d0feb36	0.035136424
250	0xbded72f4	-0.11594191
251	0x3e65a37b	0.22425644
252	0x3dbfc88e	0.09364425
253	0xbe3c4a98	-0.1838783
254	0x3d82002c	0.06347689
255	0x3e43417a	0.19067946

arith.constant3 f4 [64, 2304]
0	0x3d38d020	0.04512036
1	0xbd1dfaf0	-0.03856939
2	0x3c23ca87	0.009997017
3	0x3b632a6b	0.0034662734
4	0xbd2f880c	-0.042854354
5	0xbc8a5bff	-0.01688957
6	0x3bb5db9f	0.0055498625
7	0xbca154e6	-0.019693803
8	0x3ca69552	0.020334873
9	0x3d07819d	0.033082593
10	0x3d33998b	0.0438476
11	0xbc30fb64	-0.010802124
12	0xbd190d57	-0.037366237
13	0xbd956871	-0.07295311
14	0xbd47ceb2	-0.048781104
15	0x3c14d717	0.009084485
16	0x3d1c2b92	0.03812749
17	0xbd1a6014	-0.037689283
18	0xbd038a7c	-0.03211449
19	0xbcc91efd	-0.02455091
20	0xbd46dd89	-0.048551116
21	0xbd1e9dd4	-0.038724735
22	0xbd563ed4	-0.05230601
23	0x3c13b46c	0.009015184
24	0xbcc756fe	-0.024333473
25	0xbb44745c	-0.0029976582
26	0xbd519d1d	-0.051175226
27	0xbd26ad55	-0.040692646
28	0xbd302283	-0.043001663
29	0x3d2fa4af	0.042881664
30	0x3a079b80	0.00051730126
31	0xbcfdd0d2	-0.030983362
32	0xbd1d48f8	-0.038399667
33	0xbd12522c	-0.035722896
34	0xbc97189a	-0.018444348
35	0xbc7d0214	-0.01544239
36	0xbcce158c	-0.025156759
37	0x3bd2c368	0.0064319856
38	0xbd233a0f	-0.03985029
39	0x3c8a34bc	0.016870849
40	0xbd3a1ba7	-0.045436528
41	0xbb1fd884	-0.0024390528
42	0xbc0785a0	-0.008271605
43	0xbd24d6c2	-0.04024387
44	0xbd0d0502	-0.034428604
45	0xbcd690fa	-0.026192177
46	0xbd3a96de	-0.045554034
47	0xbd0fc389	-0.035098586
48	0xbc848970	-0.016178817
49	0x3d1550a8	0.036453873
50	0xbba9d969	-0.005183388
51	0xbca3671a	-0.019946624
52	0x3a995969	0.001169962
53	0x3ca1822c	0.019715391
54	0xbd3f8f9f	-0.046767827
55	0xbce20856	-0.027591866
56	0x3cbca2d5	0.023026863
57	0x3d335ee4	0.043791667
58	0x3c3eeee1	0.011653633
59	0x3c7fb955	0.015608151
60	0x3d264d09	0.04060081
61	0xbc2f321f	-0.010693102
62	0xbcd568e6	-0.026050996
63	0x3d1ee217	0.038789835
64	0xbd11b74d	-0.0355752
65	0xbc1a97c9	-0.009435602
66	0xbd1f567b	-0.038900834
67	0xbd06f64c	-0.03294973
68	0xbaf3f56f	-0.0018612574
69	0xbb56c9b6	-0.0032774038
70	0x3cc9ffa5	0.024658034
71	0xba3a3256	-0.00071028376
72	0xbcefdddd	-0.029280597
73	0xbcb144e9	-0.021639304
74	0xbd0710ba	-0.032974936
75	0xbd0edeb6	-0.034880362
76	0xbd4b47b6	-0.049628936
77	0xbc60ff79	-0.013732784
78	0x3a069e5c	0.0005135292
79	0xbc337538	-0.01095324
80	0xbcfecfbf	-0.03110492
81	0x3d2de1e7	0.042451765
82	0x3c921d3d	0.017836208
83	0x3d0a5907	0.03377631
84	0xbd95e3e5	-0.07318858
85	0xbd3e4fef	-0.04646295
86	0xbd4ce4fb	-0.05002306
87	0x3b770a2f	0.003769528
88	0xbc8a9865	-0.01691837
89	0x3cd2e96d	0.025746072
90	0xbd49b081	-0.049240593
91	0x3c47b2d6	0.012188634
92	0x3c8e3251	0.017357977
93	0x3d16d64b	0.03682546
94	0x3c71e6a0	0.014764458
95	0xbb9d4c7e	-0.0048003783
96	0x3cadc371	0.021211358
97	0x3a74a140	0.00093318895
98	0xbc02241c	-0.007943179
99	0xbc5e5721	-0.013570578
100	0xbd35144d	-0.044208813
101	0x3c009841	0.0078488
102	0xba976494	-0.001155036
103	0xbc50b486	-0.012738353
104	0xbd5c3ca4	-0.05376877
105	0x3cb52529	0.022112446
106	0xbcb3c94c	-0.021946572
107	0x3ca75292	0.020425115
108	0x3cb41f87	0.02198769
109	0x3ce25188	0.027626768
110	0x3cbfc4b8	0.023409232
111	0x3cd453a6	0.025918793
112	0xbcef40ec	-0.029205762
113	0xbd0cbc8c	-0.0343595
114	0xbd305ffb	-0.043060284
115	0xbd2eec23	-0.042705666
116	0xbc8433a4	-0.016137905
117	0xbd389723	-0.04506601
118	0x3d3eb868	0.046562582
119	0xbcf00304	-0.029298313
120	0x3c2651b6	0.010151317
121	0xbca05f90	-0.019576818
122	0x3c675adb	0.014120783
123	0x3c6ff3b0	0.014645502
124	0xbd011155	-0.03151067
125	0x3ad35d64	0.0016125855
126	0xbc9cc4dd	-0.01913684
127	0x3d0c617a	0.03427265
128	0xbcdb616f	-0.026779858
129	0xbd52ee2b	-0.051496666
130	0x3d0e610e	0.034760527
131	0xbd2cb0e7	-0.042160895
132	0x3a27dc3a	0.0006403361
133	0xbb6f2341	-0.0036489519
134	0x3b14bcc8	0.002269553
135	0xbcbbbe89	-0.022918003
136	0x3d596740	0.053076982
137	0x3d1b4e74	0.037916616
138	0x3d3896d4	0.045065716
139	0x3bfeaac8	0.0077718236
140	0xbd529ee7	-0.051421072
141	0xbd602839	-0.05472586
142	0x3d13547d	0.035969246
143	0x3cae2672	0.021258567
144	0xbd3ae164	-0.045625106
145	0x3d418209	0.04724315
146	0x3ca89d7f	0.020582912
147	0x3d229feb	0.03970329
148	0x3be16abd	0.0068791793
149	0x3d25247e	0.040318005
150	0xbd56af02	-0.052412994
151	0xbca200d7	-0.019775791
152	0xbd013dbc	-0.031553015
153	0xbbefd602	-0.007319213
154	0x3d0dbf03	0.03460599
155	0xbd4917df	-0.04909503
156	0xbb859400	-0.004076481
157	0x3b9eebde	0.004849895
158	0xbbf2f520	-0.007414475
159	0xbb30bea7	-0.0026969106
160	0xbd19c0fe	-0.037537567
161	0xbd2839ff	-0.041070934
162	0xbd1d646c	-0.038425848
163	0xbcfda37f	-0.03096175
164	0xbd205a8f	-0.039148863
165	0xbd3cae3d	-0.046064604
166	0xbd39b9c2	-0.045343168
167	0xbd7e5083	-0.0620885
168	0xbd5e15fb	-0.05422018
169	0xbc314243	-0.010819021
170	0x3c9e6226	0.01933391
171	0xbc81c35d	-0.015840227
172	0xbc245744	-0.010030571
173	0xbd1da93f	-0.038491484
174	0x3beef700	0.0072926283
175	0xbd679645	-0.056539793
176	0xbd08af62	-0.033370383
177	0xbcb76dfa	-0.022391308
178	0xbd5b2ae2	-0.053507693
179	0xbd6618e4	-0.05617608
180	0xbc1555f4	-0.009114731
181	0xbd8b87dc	-0.068130225
182	0x3d227d6e	0.0396704
183	0x3d37e534	0.04489632
184	0x3c01cdfa	0.007922644
185	0x3cc9985f	0.024608789
186	0x3cba76ab	0.022761663
187	0xbc4959d0	-0.012289479
188	0xba430db7	-0.00074407033
189	0xbcab7985	-0.020931968
190	0xbca9020a	-0.020630855
191	0xbcb070f8	-0.021538243
192	0x3af9fdcc	0.001907283
193	0x3ca631d9	0.020287441
194	0xbb26cf4b	-0.0025453146
195	0x3d197144	0.037461534
196	0xbce8197b	-0.028332463
197	0xbd427a24	-0.047479764
198	0xbd1421d2	-0.036165066
199	0xbd0d056d	-0.034429003
200	0xbd17d3e9	-0.037067328
201	0x3c182780	0.009286761
202	0x3ce454a2	0.027872387
203	0xbd23b376	-0.03996607
204	0x3c2df1a4	0.010616694
205	0x3caea607	0.021319402
206	0x3bb9f0b5	0.0056744465
207	0x3cb6a4c3	0.022295361
208	0xbbe2f0de	-0.0069256863
209	0x39f83024	0.00047338114
210	0x3c040738	0.008058362
211	0xbd1ece26	-0.038770817
212	0x3c0886b7	0.0083329
213	0x3c064009	0.008193978
214	0xbd2359b3	-0.039880466
215	0xbabf9570	-0.0014616679
216	0x3d11c3b7	0.03558704
217	0xbd1c2ce9	-0.038128767
218	0x3d2227f2	0.039588876
219	0x3b87e0df	0.00414668
220	0xbc889662	-0.01667327
221	0x3cb0e52a	0.021593649
222	0x3d1bd976	0.038049184
223	0x3d5156bb	0.051108103
224	0x3b484b46	0.0030562445
225	0xbd4a283c	-0.049354777
226	0x3d32987f	0.043602463
227	0xbd3412ba	-0.04396317
228	0xbcc0f083	-0.023552185
229	0x3c18ab00	0.009318113
230	0xbd4a113e	-0.04933285
231	0xbd497b33	-0.049189758
232	0xbcdffe90	-0.027343065
233	0xbcf430de	-0.029808458
234	0xbd5c2e2e	-0.053754978
235	0x3d1e9df9	0.038724873
236	0xbc8ae589	-0.016955154
237	0x3c4525a8	0.012032904
238	0x3c7ab77e	0.015302537
239	0xbc5e708d	-0.013576639
240	0xbcce38b6	-0.025173526
241	0x3d16923b	0.03676055
242	0xbd1d398f	-0.03838497
243	0xbad6365e	-0.0016343107
244	0x3c00fede	0.007873265
245	0xbd938b2d	-0.0720428
246	0x3c66aa1f	0.014078646
247	0xba869b79	-0.0010269723
248	0xbd457257	-0.048204746
249	0xbbc243f1	-0.0059285094
250	0xbd05a3d3	-0.032626938
251	0xbca8142e	-0.020517435
252	0x3b557a47	0.0032574104
253	0xbd654a74	-0.055979207
254	0xbcab8a97	-0.020940108
255	0xbcfb8d25	-0.030706951

arith.constant4 f4 [64]
0	0xba7fb3e9	-0.0009754287
1	0xbca9bb49	-0.020719187
2	0xbc6b2a60	-0.014353365
3	0xbcec91c9	-0.02887811
4	0xbc13b488	-0.00901521
5	0xbc03ad3c	-0.008036908
6	0xbd82171c	-0.06352064
7	0x3e3f07a2	0.18655255
8	0xbbf22991	-0.007390209
9	0xbcf1f64d	-0.02953639
10	0x3e7a40b8	0.2443875
11	0x3e55ec3d	0.20890899
12	0xbcd31af4	-0.025769688
13	0xbcda9ddb	-0.0266866
14	0x3a441606	0.00074800884
15	0xbc2028e3	-0.009775373
16	0xbdf3342e	-0.11875187
17	0xbccb3073	-0.024803376
18	0xbd01e545	-0.03171279
19	0x3d38e728	0.045142323
20	0x3df0643a	0.11737867
21	0xbcaae536	-0.02086125
22	0xbcb9efe9	-0.022697406
23	0xbd2e9a07	-0.04262736
24	0xbe412d22	-0.18864873
25	0x3e846f59	0.25866202
26	0x3dad8a01	0.08473588
27	0xbd125cce	-0.035733037
28	0xbc5acea4	-0.013354931
29	0x3d183063	0.03715552
30	0xbcf93ba6	-0.03042395
31	0x3eafa064	0.34302056
32	0xbcc7a1f9	-0.024369227
33	0xbd7d8008	-0.06188968
34	0xbcd6bf8f	-0.02621439
35	0xbe212ee4	-0.15740544
36	0x3e48da4f	0.19614528
37	0x3d3a76d6	0.045523487
38	0xbbf1ee71	-0.0073831608
39	0xbc0c44e3	-0.008561346
40	0x3d639959	0.055566166
41	0xbce87de1	-0.028380336
42	0x3c9e175d	0.01929825
43	0xbd537e94	-0.051634386
44	0xbc82c9a1	-0.015965285
45	0xbca7eafc	-0.020497791
46	0x3e7005f5	0.23439772
47	0xbc063b87	-0.008192903
48	0x3dc2bc28	0.09508544
49	0xbb5fd8c3	-0.00341563
50	0xbbd0314f	-0.0063535343
51	0x3e2c7500	0.16841507
52	0x3e620e62	0.22075799
53	0x3e45609c	0.19275135
54	0x3e04fc35	0.12986834
55	0x3e8a9ff1	0.2707515
56	0xbd6106cb	-0.05493812
57	0xbdaceed3	-0.084439896
58	0x3dae4a98	0.085103214
59	0x3d8cdb87	0.06877809
60	0xbe368602	-0.17824557
61	0xbe01f42b	-0.12690799
62	0x3e8bfd99	0.27341917
63	0xbc949da8	-0.018141583

arith.constant5 f4 [10]
0	0xbe2c1f1a	-0.1680874
1	0xbe25b07c	-0.16180605
2	0x3b1845e6	0.0023235022
3	0x3d960aad	0.07326255
4	0x3e5308c8	0.20608819
5	0xbe4f45ae	-0.20241424
6	0x3e106935	0.14102633
7	0xbdbd8dfd	-0.09255598
8	0x3e4fcae5	0.20292242
9	0xbc857000	-0.016288757

sequential_1/conv2d_1/convolution f4 [32, 3, 3, 3]
0	0x3e4c1d86	0.19933137
1	0xbd0a1820	-0.033714414
2	0xbd92ab7d	-0.07161615
3	0x3e5f92d3	0.21833353
4	0xbdb7191f	-0.08940338
5	0x3d46f9d2	0.04857809
6	0x3d2bf859	0.04198489
7	0xbdd6f534	-0.104959875
8	0x3e2aae81	0.1666813
9	0x3e36f51e	0.17866942
10	0xbe67b08f	-0.22625946
11	0xbbf05690	-0.007334538
12	0x3d6a78a6	0.057243966
13	0xbcba0893	-0.022709167
14	0x3dce87a2	0.10084464
15	0x3e39f7f2	0.1816099
16	0xbe0dce49	-0.13848223
17	0x3deff038	0.1171574
18	0x3c2d3c6b	0.010573487
19	0xbe3a50fc	-0.18194956
20	0xbbf920f5	-0.0076028057
21	0x3cb4c308	0.022065654
22	0xbe634da6	-0.2219759
23	0xbd1d2e12	-0.038374014
24	0x3cb90f67	0.022590352
25	0xbe6bc6c1	-0.23025037
26	0x3dd52734	0.10407868
27	0xbc3d621b	-0.011559035
28	0x3e2598e1	0.161716
29	0x3e3b9842	0.183198
30	0x3e85a148	0.2609961
31	0x3e893a2e	0.268022
32	0x3e5b79ca	0.21433178
33	0xbe88d029	-0.26721314
34	0xbe66855a	-0.22511807
35	0xbe3acc96	-0.18242106
36	0xbde58487	-0.11206918
37	0xbe28cb32	-0.16483763
38	0xbe4fc9dd	-0.20291848
39	0xbda15041	-0.07876635
40	0xbdb51de5	-0.088435926
41	0x3e05d55e	0.13069674
42	0x3e1dc155	0.15405782
43	0x3e4c5ae5	0.19956549
44	0x3dcd8234	0.100346
45	0xbd342d0a	-0.043988265
46	0x3db1b454	0.08676973
47	0xbe201e74	-0.15636617
48	0xbe256df6	-0.16155228
49	0xbe6f90f4	-0.23395139
50	0xbeac7068	-0.3367951
51	0x3ddcca05	0.1078072
52	0x3bb126da	0.005406243
53	0x3d09b9d4	0.033624485
54	0xbe07cd86	-0.13261995
55	0x3d8f9a7d	0.07011888
56	0x3de42a84	0.11140922
57	0xbc2f4044	-0.010696474
58	0x3db71479	0.08939452
59	0x3d9e4a36	0.07728998
60	0xbd9e2147	-0.07721191
61	0x3e2350ab	0.15948741
62	0xbdff1f8d	-0.1245719
63	0x3d98025a	0.074223235
64	0x3e7c1782	0.24618343
65	0x3c715ec7	0.014732069
66	0x3deedeba	0.116635755
67	0x3d210c69	0.039318476
68	0xbe0166b5	-0.12636836
69	0x3d2a10d4	0.041519955
70	0x3e699907	0.22812282
71	0xbd84f093	-0.064911984
72	0xbd432340	-0.04764104
73	0xbd30fd2f	-0.043210205
74	0xbe8c4ecd	-0.2740387
75	0xbe006ef0	-0.1254232
76	0x3e3f4a67	0.18680726
77	0xbeb474d0	-0.3524537
78	0x3dbf97cd	0.093551256
79	0x3d830d4a	0.06399019
80	0xbe9fe93f	-0.3123264
81	0xbe8f9eee	-0.2805094
82	0xbdf24eed	-0.1183146
83	0xbe809e54	-0.25120795
84	0xbe8eafbb	-0.27868447
85	0xbe93a603	-0.28837594
86	0xbe0d8c4b	-0.13823049
87	0xbe762466	-0.24037322
88	0xbe0f2c3a	-0.13981715
89	0xbe754744	-0.23952967
90	0x3ddcd94c	0.107836336
91	0xbd26cd71	-0.040723268
92	0x3dc61588	0.096720755
93	0x3e0c50e7	0.13702737
94	0x3e06686c	0.13125771
95	0x3d0063ac	0.031345055
96	0x3db3ec37	0.08785289
97	0x3e0c7cfd	0.13719554
98	0x3e27bc92	0.16380528
99	0x3e266c95	0.16252358
100	0x3e4f88ba	0.20267001
101	0x3da4dae8	0.080495656
102	0x3dd7ac9e	0.10530971
103	0x3c8cab00	0.017171383
104	0x3dfc3964	0.12315634
105	0x3e5c6aea	0.2152516
106	0xbcad51ab	-0.021157106
107	0x3e256d36	0.16154942
108	0x3de7f1bf	0.11325406
109	0x3d2b1ab4	0.041773513
110	0x3da2f0ac	0.07956061
111	0xbe814755	-0.25249735
112	0xbe95e5dc	-0.2927693
113	0xbe959bf9	-0.2922056
114	0xbd8a2e73	-0.06747141
115	0xbd33da00	-0.043909073
116	0xbb3dc3e6	-0.0028955876
117	0x3e7bb103	0.24579243
118	0x3df35e64	0.11883238
119	0x3e837faf	0.25683352
120	0x3db03210	0.08603299
121	0xbdca4f98	-0.098784626
122	0x3e01a50e	0.1266062
123	0xbe67271d	-0.22573514
124	0xbe499bff	-0.19688414
125	0xbeb66c91	-0.35629705
126	0x3dd50b42	0.10402538
127	0xbd76c1d9	-0.06024346
128	0x3e3e487e	0.18582341
129	0x3def0a78	0.11671919
130	0x3e8ab22e	0.27089065
131	0x3e6de1d9	0.23230685
132	0x3bdf7952	0.0068198824
133	0x3c4e6ad5	0.012598713
134	0xbd3cb0a1	-0.046066884
135	0xbe3c86be	-0.18410775
136	0xbe938162	-0.2880965
137	0xbe72cff9	-0.23712148
138	0xbd4ffbd7	-0.050777283
139	0x3e4d7b2a	0.20066515
140	0x3e18efb3	0.14935188
141	0x3d6e4de6	0.05817976
142	0xbd142f5d	-0.03617798
143	0xbad3d78e	-0.0016162263
144	0x3df93ffa	0.12170406
145	0x3db2c969	0.08729822
146	0xbda7163d	-0.081585385
147	0x3e4d7aa7	0.2006632
148	0x3e893968	0.2680161
149	0x3ea95194	0.33070052
150	0xbb1bb0c6	-0.0023756488
151	0xbe2e67bd	-0.1703176
152	0x3d08c0ea	0.033387102
153	0x3c59c2af	0.013291045
154	0x3d6f03e0	0.058353305
155	0xbc9f84fd	-0.019472593
156	0xbc8d186a	-0.017223556
157	0x3ce76922	0.028248373
158	0xbd384e83	-0.04499675
159	0xbe10ced9	-0.14141406
160	0xbe4aa48f	-0.19789337
161	0xbe411f9f	-0.18859719
162	0xbcf41997	-0.029797358
163	0x3c0ea731	0.008706854
164	0xbdc5558d	-0.09635458
165	0x3e2e3af0	0.1701467
166	0x3e2bc108	0.16772854
167	0x3d987e03	0.0744591
168	0xbd9a752f	-0.07541882
169	0x3e4f9157	0.20270287
170	0x3e1d9822	0.15390065
171	0xbdf4e081	-0.11956883
172	0x3dc34997	0.095355205
173	0x3dddca20	0.10829568
174	0xbdffd396	-0.12491529
175	0x3e178247	0.1479579
176	0x3df54ccb	0.11977538
177	0xbb5cb1fe	-0.0033675428
178	0x3dacb2ab	0.08432516
179	0x3d7c7eef	0.06164449
180	0x3dc17671	0.09446419
181	0xbdd2c612	-0.10291685
182	0xbd2d98e7	-0.042382147
183	0xbe01777d	-0.12643237
184	0xbe2f5a83	-0.17124371
185	0xbe56d595	-0.20979913
186	0xbe67e11e	-0.22644469
187	0xbe3795d1	-0.17928244
188	0xbddc652c	-0.107614845
189	0x3e3c58fc	0.1839332
190	0x3e3ffaa8	0.18747962
191	0xbb0f985b	-0.002191088
192	0x3e2c79a4	0.16843277
193	0x3e046e1c	0.12932628
194	0x3dd32354	0.10309473
195	0x3e10b0b7	0.14129911
196	0x3e51150d	0.20418186
197	0x3e0be009	0.13659681
198	0xbdd22d75	-0.102625765
199	0xbe6d995b	-0.23203032
200	0xbe6cc0a4	-0.23120362
201	0xbdfae5a1	-0.122508295
202	0x3da73de1	0.08166099
203	0x3d854e15	0.065090336
204	0x3d90d48b	0.07071789
205	0x3d84879f	0.0647118
206	0x3e1acfa5	0.15118273
207	0xbd88ea0d	-0.06685267
208	0xbdf5e869	-0.12007219
209	0xbe02344f	-0.12715267
210	0xbe692642	-0.227685
211	0xbe603a03	-0.2189713
212	0xbe54b430	-0.20771861
213	0xbdaea96f	-0.08528411
214	0xbd38eee1	-0.045149688
215	0x3d1c7303	0.03819562
216	0xbd3fa47a	-0.046787716
217	0xbdd0b89a	-0.1019146
218	0xbea5b866	-0.32367247
219	0xbe83bd02	-0.2573014
220	0xbea5ca34	-0.3238083
221	0xbe82d9bf	-0.25556752
222	0xbd438aaf	-0.04773968
223	0xbe0266e4	-0.12734562
224	0xbe15f267	-0.1464325
225	0xbea22ba0	-0.31673908
226	0xbeb646ce	-0.35600895
227	0xbe8f388d	-0.27972832
228	0xbe0f5aca	-0.13999477
229	0x3c72a503	0.01480985
230	0xbda53058	-0.080658615
231	0x3e847d3d	0.258768
232	0x3bd589c3	0.0065166666
233	0x3e1c857a	0.15285292
234	0xbe0a0078	-0.13476741
235	0xbe2ddf21	-0.16979648
236	0x3c7954bc	0.015217956
237	0x3e969bb4	0.29415667
238	0x3ea4759b	0.32120976
239	0x3b1ed042	0.0024233018
240	0x3ea300aa	0.31836444
241	0x3e35fdcb	0.17772596
242	0x3cbc6df0	0.023001641
243	0x3d84a1b5	0.06476156
244	0x3db308ec	0.08741936
245	0x3e1ddc70	0.15416121
246	0x3e54760b	0.20748155
247	0x3e4e9a2d	0.20176001
248	0x3cb46b67	0.02202387
249	0x3c3a2304	0.011360887
250	0x3bcd00d9	0.0062562046
251	0x3d1236f5	0.035696942
252	0x3d44dd77	0.048062768
253	0xbd1796ce	-0.037009053
254	0xbe09a0c5	-0.13440235
255	0xbd1f1b3b	-0.03884433

sequential_1/conv2d_1/Relu;sequential_1/conv2d_1/add;sequential_1/conv2d_1/convolution; f4 [32]
0	0xbcc4cd05	-0.024023542
1	0x3ccda8a3	0.025104826
2	0xbdae7ae2	-0.08519532
3	0x3d08532b	0.03328244
4	0xba2e0a93	-0.0006639149
5	0x3c763cf5	0.015029182
6	0xbd09a044	-0.033600107
7	0xbcc6b5cc	-0.02425661
8	0x3c30bc0c	0.010787021
9	0x3cd18557	0.025576277
10	0x3d9d0d75	0.07668582
11	0x3ce95d23	0.028486794
12	0xbd2f894b	-0.042855542
13	0xbce17fe9	-0.027526813
14	0x3e681275	0.22663291
15	0xbeb0a060	-0.34497356
16	0x3d120373	0.03564782
17	0x3bbf7641	0.0058429544
18	0xbe0bf8b5	-0.13669093
19	0xbcf2d78e	-0.0296438
20	0xbca38f54	-0.019965805
21	0x3c050b7b	0.008120413
22	0x3c2bce9a	0.010486269
23	0xbc29e208	-0.010368831
24	0x3b2be507	0.002622904
25	0x3c09cf6b	0.008411269
26	0x3b72328f	0.0036956405
27	0xbd52648d	-0.051365424
28	0xbe59b132	-0.21259001
29	0xbe5cd75c	-0.21566528
30	0x3d9cb1d3	0.07651105
31	0x3cea852b	0.028627953
